model/keypoint_classifier/keypoint_classifier.tflite (tflite, 6500 bytes, 6 tensors)

sequential/dense/BiasAdd/ReadVariableOp f4 [20]
000000 dc df 0a bf 19 71 96 be 53 49 4c 3e fc ee 0f bf
       -0.5424783 -0.29383162 0.19949846 -0.56224036
000010 7f 4a 33 bf e2 35 9e be b5 e6 06 bf e1 39 73 bf
       -0.70035547 -0.30900484 -0.5269578 -0.9501019
000020 57 ea 2c be eb e2 11 be 69 69 44 bf 12 83 0f bf
       -0.16886269 -0.14246719 -0.76723343 -0.5605937
000030 ad 38 11 bf 81 38 24 3e 83 6b 15 bf ab 4f 2c bf
       -0.56727105 0.1603718 -0.58367175 -0.67309064
000040 b4 c5 89 3e 8b 91 48 be 93 a5 0b bf 58 ae 2b bf
       0.26908648 -0.1958677 -0.5454952 -0.670629

sequential/dense_2/BiasAdd/ReadVariableOp f4 [3]
000000 57 b4 c6 3d 72 f2 f0 be db ea a9 3e
       0.09702366 -0.4705997 0.33186993

sequential/dense_1/BiasAdd/ReadVariableOp f4 [10]
000000 d8 41 d4 be b4 2b f6 3d a2 ab 80 3e 55 73 d1 3e
       -0.41456485 0.120200545 0.25130945 0.40908304
000010 5e 64 34 3f 55 4b 9f be f0 86 2c 3f f1 d1 b4 3e
       0.7046565 -0.3111216 0.673934 0.35316423
000020 a3 b7 87 be d6 ca 15 3f
       -0.2650729 0.5851263

sequential/dense/MatMul f4 [20, 42]
000000 cd 4c 8f be 56 bc 0d be 4c 21 bf bd 2e ab 3c 3f
       -0.27988282 -0.13841376 -0.09332523 0.736987
000010 49 05 cc bd a3 84 e6 3e 68 a8 b4 bd 80 88 64 3e
       -0.099619456 0.4502307 -0.088211834 0.22317696
000020 1c 54 7a bd 1b 2a 20 bc a3 79 96 3d 97 39 c0 3d
       -0.06111537 -0.009775664 0.07347419 0.093859844
000030 51 a8 ec 3d 7e 8a c1 3d 06 12 a4 bc 11 cf d7 3d
       0.11555541 0.094502434 -0.020028125 0.10537542
000040 6c 36 8d bd 18 10 f5 3d d7 92 3a 3d e6 79 be 3d
       -0.06895146 0.1196596 0.045550194 0.09300594
000050 a5 4c 59 ba ac 45 9d bd 3b 86 9e 3b 27 e5 4e be
       -0.0008289314 -0.076793045 0.004837779 -0.20204602
000060 84 78 c9 3c dd e3 05 be cb bb 25 3d 91 20 cc 3d
       0.0245936 -0.13075204 0.040462296 0.09967149
000070 b6 4d 84 bc ac c2 09 bf f3 4a 00 3e 41 b7 f6 be
       -0.016150337 -0.5381267 0.12528591 -0.48186687
000080 8a 9c 33 3e 87 8e ee be 46 50 0e 3e 5f b3 81 3d
       0.17540184 -0.46593115 0.1389781 0.063330404
000090 c4 c4 22 3d 4b 14 42 be 6a cc d2 bd 66 ce 32 bf
       0.03973843 -0.18953054 -0.10292895 -0.6984619
0000a0 af b0 82 bd 5f 2d c9 be 90 49 e8 3c fe 66 93 3e
       -0.06381356 -0.39292428 0.02835539 0.28789514
0000b0 a4 13 ed bd 9f e9 77 3d e6 7e 87 bc de db 2d be
       -0.11576012 0.060525533 -0.016540002 -0.16978404
0000c0 e1 67 60 3b 23 c8 41 be bd 24 85 3c d7 29 19 bf
       0.0034241604 -0.18924002 0.01625287 -0.5982947
0000d0 c4 a5 6e bd 73 b4 46 be af 0f 0b be f4 05 ec 3d
       -0.058263555 -0.19404773 -0.13580202 0.11524573
0000e0 57 d0 be bc 00 fa b6 3e 45 02 fd 3d e6 6f f4 3e
       -0.023292704 0.3573761 0.123539485 0.47741622
0000f0 a2 6e d0 bc aa 55 e1 3d ef b6 7d bd 85 61 c4 bd
       -0.025443379 0.11002667 -0.061942037 -0.09588913
000100 aa 8a ae bc 91 a0 58 be f9 8f 5a 3b 7b d3 35 3f
       -0.021306355 -0.21155001 0.0033349975 0.7102582
000110 79 78 48 be ad 85 6d 3e 37 66 f8 ba 0c ee b0 3d
       -0.19577207 0.23195525 -0.0018951361 0.08639154
000120 6f 01 a3 be 3e fc e3 3e 6c 29 51 be 55 6a 73 3f
       -0.3183703 0.44528383 -0.20425957 0.95084125
000130 44 77 e0 be 06 c5 ec 3e 0b c4 19 be d2 ec a5 3d
       -0.43840992 0.46244067 -0.1501619 0.081018105
000140 30 6d ce be 13 0a 29 3e 55 32 e6 be 9f e1 10 3f
       -0.40317678 0.1650775 -0.44960275 0.5659427
000150 02 69 6c be c0 52 d6 3b f0 f5 fd be fd d6 07 3f
       -0.23086932 0.0065406263 -0.49601698 0.5306242
000160 9b bd ab be ad 07 e7 3d 81 af 48 be 28 50 6c 3c
       -0.33543095 0.11280761 -0.195982 0.014423408
000170 7c 56 65 be 16 54 d6 bb e0 57 12 3e 33 b7 90 3e
       -0.22396272 -0.0065407855 0.14291334 0.2826477
000180 6a 3c 83 bd c6 ee 69 3e 40 46 a2 bd 40 8d 0c bd
       -0.064080074 0.22844991 -0.079235554 -0.034314394
000190 7f 93 16 bd e1 2f 25 bd 7c 2d 4e 3e 93 c3 bf 3e
       -0.036761757 -0.040328864 0.20134538 0.374539
0001a0 03 25 db 3d 64 45 40 3e 04 95 1d 3d 58 d4 f1 bd
       0.10700419 0.1877647 0.03847219 -0.118080795
0001b0 3e ed b3 3c 95 ae 80 bf d2 5c 7b 3e f4 5e cb 3e
       0.021963712 -1.0053278 0.24547127 0.3972088
0001c0 82 ef e7 bc 9a c2 20 3e 11 e3 cb 3d 4a 01 f8 bd
       -0.028312448 0.15699235 0.09955419 -0.12109621
0001d0 a2 ce 96 3d eb 24 47 bf eb 75 bf 3d d3 7c 14 3f
       0.07363631 -0.7779071 0.09348663 0.58002967
0001e0 89 83 78 bc 53 05 5f 3e 9c 8a 99 3d 28 84 90 3e
       -0.015168079 0.21779375 0.07497141 0.28225827
0001f0 33 0d 23 3e db 60 a6 3d 38 bd 81 3e 00 0f 06 bb
       0.15923004 0.081239425 0.25339675 -0.0020455718
000200 ef 02 6b be 52 f3 2b 3f c2 5b 07 be e6 81 04 3e
       -0.22950338 0.6716815 -0.13218597 0.12940177
000210 75 52 c6 bd 72 74 87 3d 27 45 c8 bd 4a eb b2 be
       -0.09683696 0.06614007 -0.09778815 -0.34945136
000220 38 3c a8 3d 23 dd ff 3d 0e 1e 77 3d a1 17 ad 3d
       0.08214611 0.1249335 0.060331397 0.084517725
000230 8b 53 3d bd 92 41 cc 3d e4 f6 57 bd f9 99 01 3e
       -0.04622225 0.09973444 -0.052725688 0.12656392
000240 2b f5 ad 3e f1 5e de 3d 60 f8 23 bc 07 85 6a be
       0.3397611 0.108579524 -0.010007948 -0.22902308
000250 47 ba 80 3d 84 bb c4 be d6 dc 27 3d d3 63 41 be
       0.062855296 -0.38424313 0.04098209 -0.18885736
000260 d9 c3 96 3e f7 a6 20 3e e9 13 53 bd 8a 4f 4a be
       0.29446295 0.15688692 -0.05153266 -0.19756904
000270 07 da b7 3d 84 d8 da be 71 0d d3 3e c8 70 84 be
       0.08977132 -0.42743313 0.41221192 -0.25867295
000280 5b 50 b1 bd 9d b9 2d 3e 73 54 94 bd f7 c7 c6 be
       -0.08657905 0.16965337 -0.0724267 -0.38824436
000290 2a d7 44 be 1d 2e aa be dd 88 3e 3e a1 d8 d7 be
       -0.19222704 -0.33238307 0.18606897 -0.42157462
0002a0 70 46 b8 bc 52 22 5a be 6f 4c 84 3f ff 3f a3 be
       -0.022494525 -0.21302155 1.0335826 -0.31884763
0002b0 9e 0b 23 3f 4f 98 58 bb 5f a7 fb 3e f0 a5 be bd
       0.636896 -0.0033049767 0.49151132 -0.09308994
0002c0 12 38 aa 3e 88 d2 05 3e 7f 04 95 be 76 67 58 be
       0.33245903 0.13068593 -0.29104993 -0.21133217
0002d0 47 2b 10 be 94 ad eb bd 0c 47 78 bd 68 a0 23 3e
       -0.14079009 -0.11507717 -0.06061463 0.15979159
0002e0 91 54 af 3a 73 16 08 3e 53 9a 0c bf 49 97 98 be
       0.0013376643 0.13289814 -0.5492298 -0.2980292
0002f0 1f 24 43 3e b2 f5 00 3d 17 7e 46 3d 92 30 05 3e
       0.19056748 0.031484313 0.048460092 0.1300681
000300 98 d5 3f be cb 2c 3b 3e 73 f7 01 bf 58 12 6b be
       -0.18733823 0.18278806 -0.507682 -0.22956216
000310 67 72 1e 3e ed 12 aa bd fa 92 82 3e 30 24 0a 3e
       0.15473329 -0.08304391 0.2550276 0.13490367
000320 52 6d 2a be 00 2d 15 3e 88 13 d2 bd a1 68 99 be
       -0.16643265 0.14567947 -0.102576315 -0.29962638
000330 5c c6 1a 3f 4c 20 23 be cd 26 2e 3f 5a 39 7b 3d
       0.6045892 -0.15930289 0.68027955 0.06133399
000340 0b fe 95 3e 16 07 da 3d 70 81 2b bd 4a 06 f9 bd
       0.29295382 0.10645883 -0.041871488 -0.12159403
000350 23 aa 97 3c 5e 03 2e 3a 3c 53 66 3d e2 8b 3e 3e
       0.018513745 0.0006638075 0.056231722 0.18608049
000360 f2 b2 47 3c 58 eb 2a 3e 88 2b fb 3c 1e 69 1c 3e
       0.01218866 0.16691339 0.030660406 0.15274474
000370 3a 11 1e 3d 60 60 ac b9 d0 f6 0d 3c 53 f1 0b be
       0.038590647 -0.000328782 0.008664802 -0.13666277
000380 f0 c4 82 bc 59 d9 85 bf 29 54 9b bc 35 7e 7a bd
       -0.015963048 -1.0456954 -0.01896103 -0.061155517
000390 bb b6 8d 3c 2a cb e1 bc d7 27 96 3c 5a f1 d7 3d
       0.017299047 -0.027562696 0.018329544 0.10544081
0003a0 ab 7a 11 bd 2c dc 2f 3e 18 20 37 bd 62 7e 48 3e
       -0.035517376 0.17173833 -0.04470834 0.19579461
0003b0 e0 30 e0 bb 2a ed 7e 3c a4 d3 fe 3a da 3a fd 3d
       -0.006841764 0.015559474 0.0019441736 0.12364741
0003c0 16 d1 92 bc c9 f2 39 3e 01 8d 6f bd fa 1a 44 3e
       -0.017921966 0.18159021 -0.05848408 0.19150916
0003d0 25 2c ba 3d e2 f5 ba bc d3 99 0d 3d 8c c0 15 3e
       0.09090451 -0.022822324 0.034570526 0.14624232
0003e0 de fc b5 3c c0 b2 30 3e b5 09 82 bb bc 7d 4e 3e
       0.022215303 0.17255688 -0.0039684423 0.20165151
0003f0 32 95 56 be 40 19 8f 3e 4a a6 23 bf 33 46 8f bf
       -0.20955351 0.27948952 -0.6392561 -1.1193298

sequential/dense_1/MatMul f4 [10, 20]
000000 60 94 d8 bc cd d6 5a bd 8f 66 1a bf 1b 2c 15 3d
       -0.026437938 -0.053427506 -0.6031274 0.036419015
000010 01 40 59 be 09 dc 8c be 0d 14 37 bf 5f 58 2f be
       -0.21215822 -0.27511624 -0.7151497 -0.17123555
000020 04 94 26 be d9 2d c7 bd a0 96 31 3f e5 25 db be
       -0.16267401 -0.097255416 0.6937046 -0.4280235
000030 d3 f8 7c 3e 90 a1 11 3c 7a 30 1b 3f 44 dd 1e 3e
       0.24704294 0.008888617 0.60620844 0.15514094
000040 3c eb 20 be c6 d5 1f bf ab bb e9 3e 38 a6 be 3e
       -0.15714735 -0.6243557 0.45650992 0.3723619
000050 2e cf 13 3f 4a 93 a4 3e 6b 29 e1 3e df 25 67 3e
       0.57738006 0.32143623 0.43976912 0.2257304
000060 f4 27 d0 3d 4a 3f af be 3d 86 d6 be 26 5c 65 3e
       0.101638705 -0.34227973 -0.4189929 0.22398433
000070 28 5c da 3d b0 2c 3a 3f ff 1b 73 3b 6b 4d c9 3e
       0.10662109 0.7272444 0.0037095544 0.39316878
000080 95 06 4d 3f 70 ec 88 3f 8d e8 13 bf b2 90 8c 3e
       0.8008817 1.0697155 -0.5777672 0.27454144
000090 a1 5a d6 3d 73 14 1b 3d 43 3c 1f 3f 54 38 c0 3d
       0.10466505 0.0378613 0.6220133 0.09385744
0000a0 b7 12 1e 3e 2a c5 80 3f 00 a0 30 be 2a da 68 3e
       0.15436827 1.006017 -0.17248535 0.22739473
0000b0 6e 9e 59 3f b2 45 aa be 3b a0 2d 3f aa 37 3c 3f
       0.8500737 -0.33256298 0.6782262 0.73522437
0000c0 0d d9 32 3f 3f 9d 25 bf 27 7e f8 3e a9 a3 bd 3e
       0.69862443 -0.64693063 0.48533747 0.37038925
0000d0 f1 8c 78 3e 92 d3 bb be 2c 71 28 3f 2a 1a 82 3e
       0.24272515 -0.36684853 0.65797687 0.25410587
0000e0 9e a1 11 bf 81 43 4c bf ce f5 ab 3e 5e be 52 be
       -0.56887233 -0.797905 0.33585972 -0.20580432
0000f0 21 9b 21 bf 77 5b 63 be 55 af 06 be b0 90 02 bf
       -0.6312733 -0.2220286 -0.13152821 -0.51002026
000100 59 02 bf bd 70 2f 14 3f 95 08 01 3e 47 21 83 be
       -0.0932662 0.57884884 0.1260093 -0.25611326
000110 af 6d 0b 3f c3 b3 31 bf df 0b fc 3d 27 91 0d bf
       0.5446424 -0.6941492 0.12306952 -0.5529961
000120 78 10 7d be de c6 54 bf 8e 0f 8d bd d7 5b 8d 3e
       -0.24713314 -0.8311595 -0.068877324 0.2760913
000130 01 02 04 3c ec 79 f1 3e 57 ac 36 3e a2 96 26 3e
       0.008057118 0.47163332 0.1783918 0.162684
000140 c3 32 5a 3e 91 80 3b bf d0 e0 f0 3e 93 2e 6d 3e
       0.21308427 -0.7324305 0.47046518 0.23162298
000150 d4 18 04 3e a4 19 10 3f b2 62 3a bf 44 ba 10 bf
       0.12900096 0.56289124 -0.7280685 -0.5653422
000160 f0 ae 69 3e 0d d8 92 3e 17 7d b7 bd f8 92 22 be
       0.2282064 0.2868046 -0.08959406 -0.15876377
000170 aa 56 83 3b 8b e7 0f be 98 e6 8b bf 59 71 6f bf
       0.004008134 -0.1405317 -1.0929747 -0.9353233
000180 14 95 cb bc d9 fc b9 3f 28 bd 8d bf 68 07 53 bf
       -0.02485136 1.4530288 -1.1073351 -0.82433176
000190 ed 23 dd 3e e0 c0 ff 3e d7 9b df bd 1d 3f c9 3e
       0.43191472 0.4995184 -0.10918396 0.39305964
0001a0 6e f1 0c 3e 06 90 24 bf 3c 0d 1f 3f 05 c7 7c 3e
       0.13763973 -0.6428226 0.6212957 0.24685295
0001b0 3f 3a 80 3e d8 77 ad 3e 01 81 0c 3e 0e b5 2a 3f
       0.25044438 0.33880496 0.13721086 0.6668252
0001c0 66 64 c5 3d c7 3b 16 be a2 b8 6d bd 8c 75 92 3e
       0.0963829 -0.14671241 -0.058037408 0.28605306
0001d0 62 bf 60 3d b5 a0 fc be 63 7a 2c 3f c8 5a 67 3e
       0.054870017 -0.4934136 0.6737425 0.22593224
0001e0 86 ec 22 bf 02 7c a9 be d7 a7 d5 be 6a cc e3 be
       -0.63642156 -0.33102423 -0.41729614 -0.44491893
0001f0 06 78 82 3e 9d dc 34 3f 7e ef 8c be 18 01 05 bf
       0.25482196 0.7064913 -0.27526468 -0.51954794
000200 e9 d2 62 3e d2 16 7d be e3 18 a3 3e cb 81 96 be
       0.22150768 -0.24715737 0.31854925 -0.293959
000210 f8 14 2e bf c1 aa 16 bf 84 3c 05 bf 40 5e 8b be
       -0.68000746 -0.588543 -0.52045465 -0.27220345
000220 3e 9e 88 bf 97 f9 ef 3e 7a 04 16 bf eb 6a 33 bf
       -1.0673292 0.4687011 -0.5860058 -0.7008502
000230 db 98 33 3e 41 4d b5 be c9 38 2d 3f de 28 95 3e
       0.17538778 -0.35410503 0.6766477 0.29132742
000240 ce 0e bb be 14 fa 9d be ff 7f 0a bf 7f b2 3d be
       -0.36534733 -0.30854857 -0.54101557 -0.18525122
000250 bf ac bb 3d b8 4d 6b 3f 27 88 c4 be b3 ae 36 3f
       0.09163808 0.91915464 -0.38385126 0.7136032
000260 44 ec f5 3e c1 93 84 3f 3a e0 e9 3d 6b 11 f6 be
       0.4803182 1.0357591 0.11419721 -0.48060164
000270 3e d8 c8 3e f5 b9 79 3e ef bc b9 be 33 ab 00 bf
       0.3922748 0.24387343 -0.36276957 -0.5026123
000280 09 ac 8e bc 5e ae d5 3e 20 b2 03 3e eb 3d 67 3d
       -0.017416017 0.41734594 0.12860918 0.056455534
000290 9e 36 64 3f 1a 38 09 39 85 4b 09 3f 49 31 be 3f
       0.8914584 0.00013086238 0.5363086 1.4858791
0002a0 eb 9d 96 bf 4b 51 ab 3e 67 e2 83 bf 54 26 5b be
       -1.1766943 0.3346046 -1.0303468 -0.2140134
0002b0 6f 76 25 3d c4 fe 8f be 2b f6 a0 3e ab d5 aa 3e
       0.04039615 -0.28124058 0.3143781 0.3336614
0002c0 c0 d2 00 3f 2d 57 1f bf d0 12 8d 3f b1 0e 03 3f
       0.5032158 -0.62242395 1.1021366 0.5119429
0002d0 ed 9b 31 bf 54 db 0a bf d0 a0 0a be dc 34 23 bf
       -0.6937855 -0.5424092 -0.13537908 -0.6375253
0002e0 90 73 30 3e 06 96 60 3f ee f2 25 3e 5f 6e 15 3d
       0.17231584 0.8772892 0.16205952 0.03648221
0002f0 2c 0a 0e be 85 7a b6 be ea 99 5e 3e f7 08 4b bf
       -0.13871068 -0.3564035 0.21738401 -0.79310554
000300 bc 39 5a bf 39 20 6f bf 0b 4b 74 3e fa 2d 65 3e
       -0.85244346 -0.9340854 0.23856752 0.2238082
000310 27 4c 8b 3d 21 8a 2c 3f db ef 7e 3d 6f 7e 23 3e
       0.06801634 0.6739827 0.062240463 0.159662

sequential/dense_2/MatMul f4 [3, 10]
000000 a3 3c 75 be 56 7a 24 3e 38 2f 5e bf 39 0c e5 be
       -0.23948912 0.16062292 -0.867908 -0.44735888
000010 fd 8d 15 3f a2 bd a0 3c 4b b7 04 bf c3 21 83 3f
       0.5841978 0.019621674 -0.5184218 1.0244678
000020 71 51 7f bf 8f 30 74 bf 10 45 88 3f df fc fa 3c
       -0.99733645 -0.95386595 1.0646076 0.030638156
000030 26 af 50 3f 2f f9 d5 be d0 c7 7c bf dd ad 3c 3f
       0.81517255 -0.41791674 -0.9874239 0.73702794
000040 26 75 a3 be 15 a9 44 3e 86 1c 1a 3f eb 31 68 bf
       -0.31925315 0.19205125 0.60199773 -0.9070117
000050 ab 81 a0 be bf a9 80 bf 89 bb 7e 3e 07 3b d2 3e
       -0.3134893 -1.0051802 0.24876226 0.4106066
000060 89 5b 98 3d 6e 11 48 bf 83 fe 1a 3f 09 d0 91 bf
       0.07439334 -0.78151596 0.60544604 -1.1391612
000070 77 26 64 3e 1b 22 2f 3f
       0.22280298 0.68411416
