model/keypoint_classifier/keypoint_classifier.tflite (tflite, 6500 bytes, 6 tensors)

sequential/dense/BiasAdd/ReadVariableOp f4 [20]
000000 14 f0 94 be 51 27 42 3e 3d 41 6e be 92 93 37 bf
       -0.29089415 0.1896031 -0.23267074 -0.7170955
000010 9b 54 f8 be 45 93 46 be 00 d3 53 bf a7 b0 1d be
       -0.4850205 -0.19392116 -0.82743835 -0.15399419
000020 69 08 34 bf 76 5c 41 bf d3 9e 48 bf 72 5d 1f bf
       -0.7032533 -0.7553171 -0.78367347 -0.6225196
000030 15 5b 30 bf 8c c7 07 bf e2 17 cf 3d e4 64 1a bf
       -0.6888898 -0.5303886 0.10111977 -0.60310197
000040 d2 c7 76 bf 5a 3b 18 bf 42 9e 43 bf 03 82 d8 be
       -0.9639865 -0.59465563 -0.7641336 -0.4228669

sequential/dense_2/BiasAdd/ReadVariableOp f4 [3]
000000 b4 8c f4 be 62 b4 68 be 8c 76 22 3f
       -0.47763598 -0.2272506 0.6346214

sequential/dense_1/BiasAdd/ReadVariableOp f4 [10]
000000 c9 27 b6 be 9d 92 e0 3e be 8a 3d 3f 9a aa f7 3e
       -0.3557723 0.43861857 0.7403983 0.48372346
000010 2a 12 2f 3e 7a 58 e9 3e 52 49 03 be aa 1f a9 3e
       0.17096773 0.45575315 -0.12820938 0.3303197
000020 9c c2 f7 3e a9 61 1f 3f
       0.48390663 0.6225839

sequential/dense/MatMul f4 [20, 42]
000000 f6 8d 34 3e 2d b1 2b be c4 cd 0e 3f 30 ef 43 bf
       0.17632279 -0.16766806 0.55782723 -0.76536846
000010 7a be 8b 3e 50 8f 08 be 7d 3b 7b 3e 02 83 1a 3e
       0.2729376 -0.1333592 0.24534412 0.15089038
000020 fa 4e b0 3e 33 42 bc 3e 26 e8 49 be 60 b6 c6 bd
       0.34435254 0.36769256 -0.19717464 -0.09702754
000030 7b 50 04 be ec 66 55 be 39 3f da 3d 14 0d 3f bf
       -0.12921326 -0.20840043 0.1065659 -0.7462933
000040 c1 dd 7a 3e 7c e6 d9 bd a4 24 66 be 67 e9 bf bd
       0.24498655 -0.106396645 -0.22474915 -0.0937069
000050 e5 d6 07 3e 15 ad 4a 3e a8 48 a1 3c 3b 66 83 3e
       0.1326557 0.19792588 0.019687966 0.25663933
000060 c6 3f 0c be 27 38 7c 3e 5e ed 69 be 06 0d a0 bd
       -0.13696203 0.24630795 -0.22844455 -0.07814984
000070 d7 c1 3f 3e 76 9b 46 3e bd 01 de 3c 57 7e 83 3e
       0.18726288 0.19395241 0.027100438 0.25682327
000080 17 ed 3c be 62 d5 6b 3e 3e 86 82 3d cf 56 d2 bd
       -0.18449818 0.23030618 0.06373261 -0.10270464
000090 44 1b 70 3e df 47 84 3e 50 84 28 3e 7a c7 9e 3e
       0.23447901 0.25836083 0.16456723 0.31011564
0000a0 e4 bb 17 3e e3 ca 34 3e 92 38 0d be 7a 17 11 be
       0.14817768 0.1765552 -0.13791111 -0.14169112
0000b0 48 58 ae be 03 82 cf 3e 1f 9f 99 be e3 de db 3d
       -0.34051728 0.4052888 -0.30004212 0.10735872
0000c0 f5 ea 89 be 26 1b 1e 3d 12 f3 7b be 74 b6 b7 3b
       -0.2693707 0.03860011 -0.24604443 0.005606467
0000d0 07 71 4f bd 68 48 7b 3e 10 af a5 bb c4 c9 31 3e
       -0.0506449 0.2453934 -0.0050562695 0.17362124
0000e0 2c 19 97 bd e9 f3 15 3c 5c 9c bb bd c6 ea 0f bf
       -0.07377848 0.009152391 -0.091606826 -0.5621761
0000f0 3b 4c 9e 3d ef 13 82 3e 39 79 c5 3b 00 3e 41 3e
       0.077293836 0.25405833 0.0060264138 0.18871307
000100 8b 12 1d 3d 37 ce 56 3d ef 21 ff 3d 08 a9 1d bf
       0.038347762 0.052442756 0.12457644 -0.61586046
000110 c7 ef 0f 3e b4 75 7a 3e 0e a1 ec 3c 77 fa 69 3e
       0.14056312 0.24458963 0.02888539 0.22849451
000120 56 c4 f7 3d 70 40 ca 3d d2 78 f2 3d a1 db 17 bf
       0.12097995 0.09875572 0.11839451 -0.593195
000130 93 07 be 3d 4b 6b ae 3e 32 44 81 3d 3c fb 85 3e
       0.092787884 0.34066233 0.06311835 0.2616824
000140 92 42 22 3e c1 8c 5f 3e 01 83 63 3e 14 f3 e6 3c
       0.15845707 0.21831037 0.22217943 0.02819208
000150 a0 65 75 3e 5c 16 cb 3d 9b 2b 84 3e 7e dd 2f bf
       0.23964548 0.09916374 0.25814518 -0.68697345
000160 e8 85 33 3e 34 1b d0 be 6a 64 1d 3e d1 ad 19 3e
       0.1753155 -0.40645754 0.15370336 0.15007712
000170 0e 87 81 3e 87 f1 90 3e 8d 12 fc bd 21 81 9d bd
       0.2529835 0.2830927 -0.12308226 -0.07690645
000180 b3 90 1d be a8 7d 29 bf 70 2f 12 3d 6f 76 f9 be
       -0.1538723 -0.6620736 0.03568977 -0.4872317
000190 57 3e 85 3e 03 a2 f6 be 50 da d8 bd 86 c1 fe 3a
       0.26024124 -0.4817048 -0.10588515 0.0019436337
0001a0 cf fe a2 3d 73 ac 5e 3e eb a0 77 bd 4e 79 b9 3e
       0.07958757 0.21745472 -0.060456198 0.3622536
0001b0 b4 9c 43 be a5 a7 8d 3e 29 40 5b be b4 de 04 3d
       -0.19102746 0.27666965 -0.21411194 0.03243895
0001c0 17 62 9b 3d ed a5 a0 3e 81 70 78 bd 3a a9 e0 3e
       0.075870685 0.3137659 -0.060654167 0.4387911
0001d0 f1 3e 49 be cc 93 b1 3e 29 70 e6 bd 09 6b 4b 3d
       -0.19652916 0.34683073 -0.112518616 0.049662624
0001e0 2a 4a 27 3e b6 5a a2 3e 51 cc 9a 3c a5 13 02 3f
       0.16336885 0.31709832 0.018896254 0.50811225
0001f0 d4 78 75 bd 23 fd ea 3e f2 d4 1a 3e 2c a5 1a be
       -0.059929684 0.45896253 0.15120295 -0.1510207
000200 36 58 11 bf 9b 76 82 bf cf d7 8c be 68 ed 19 bf
       -0.56775224 -1.0192446 -0.275084 -0.6012788
000210 66 38 14 be d0 b3 f0 be 60 1f 0a be e5 5d be be
       -0.1447464 -0.47012186 -0.13488531 -0.3718101
000220 bd 08 a9 3e 3c ec f7 b9 04 78 64 be e2 40 f0 3c
       0.3301448 -0.0004728752 -0.22311407 0.029327814
000230 2d a9 5f be 89 42 3f 3e e6 20 56 3d 08 5e f8 3d
       -0.21841879 0.18677725 0.05227747 0.1212731
000240 09 eb 73 3e db 7d 6a 3d c9 1b e6 bd 71 72 74 bd
       0.23820128 0.05724893 -0.11235768 -0.059679452
000250 45 c6 8f be fd b6 30 3d f6 22 c3 be 78 05 af 3d
       -0.28080955 0.04314326 -0.3811261 0.08545965
000260 eb 18 d4 3e 64 ae cd 3d 19 7f d8 bd 2d aa 03 be
       0.4142526 0.10043028 -0.10571117 -0.12857886
000270 52 60 0a bf 0e 28 e1 3d 50 c3 43 bf ab b4 30 3e
       -0.54053223 0.10993968 -0.764699 0.1725642
000280 1d 7e 31 3e 43 7e 0e 3e e4 2c 64 be 0e f9 f3 bd
       0.17333265 0.13915353 -0.2228275 -0.11912738
000290 a7 47 f2 be b8 8d cf bb 77 b6 d9 be 11 df 48 3e
       -0.4732029 -0.006334033 -0.42522022 0.19616343
0002a0 d7 a2 91 be 30 de 70 be 36 da d3 be e7 b1 07 bf
       -0.2844455 -0.23522258 -0.4137742 -0.5300583
0002b0 51 15 cb be 1e a8 9b be eb 0f cf be 4f a1 05 be
       -0.396647 -0.304017 -0.40441832 -0.13049816
0002c0 82 ee 34 be f1 1f d0 bd bf 8d b6 bd 69 44 93 bd
       -0.17669109 -0.10162342 -0.08913755 -0.071907826
0002d0 81 f2 5c bd 0a 5e 33 be 11 49 c6 3c 5e e1 de bd
       -0.053942207 -0.17516342 0.024204763 -0.10882829
0002e0 10 d9 67 be a8 7e 29 3d 25 a6 34 3e 3f fa b2 bb
       -0.22641397 0.041380554 0.17641504 -0.0054619606
0002f0 18 01 19 bc d6 ff 90 3d 56 ab 8a bd 37 7e 9e 3d
       -0.00933864 0.07080047 -0.06770961 0.07738917
000300 77 1b ca 3d af c4 a3 3d e2 83 77 3e 63 65 c1 bd
       0.0986852 0.07996499 0.24171403 -0.09443166
000310 19 de bd be 95 dd d5 3c 0c 39 76 be 09 c8 be 3d
       -0.3708351 0.026106635 -0.24045199 0.093154974
000320 56 1b 95 bd 02 29 fe 3d f5 df 9a bd 69 de 03 be
       -0.072806045 0.12410165 -0.07562248 -0.12877811
000330 be a7 80 be 4d 28 a8 3c c8 fd e4 be ab b1 ec 3d
       -0.25127977 0.02052703 -0.4472487 0.11557325
000340 32 4e f2 be 04 a5 c1 3d 5c f3 6b 3e 70 62 75 3e
       -0.47325283 0.09455302 0.23042053 0.23963332
000350 66 36 98 3d 37 3e 00 3f f2 6f 4b ba 95 07 aa 3e
       0.07432251 0.5009493 -0.00077605166 0.3320891
000360 e0 6c 31 3d 06 54 19 3e 38 4e 32 3c b4 d9 c7 3d
       0.043316722 0.14973459 0.010882907 0.097583205
000370 8c b7 ff ba 6c 17 d7 3d 99 51 8a 3c b1 3c 8a 3d
       -0.0019509657 0.10502514 0.016884612 0.06749857
000380 c8 b0 2e 3c 56 5a 5b 3d 41 7d 6b bd d0 b7 a3 bf
       0.010662265 0.053552948 -0.0574925 -1.279047
000390 ea 81 6c bd c1 89 85 3d 08 3f 10 3d 61 90 3e 3d
       -0.057741083 0.06520415 0.03521636 0.04652441
0003a0 89 de 97 bc 15 a6 a2 3d 59 70 21 bd 52 4b 93 3d
       -0.01853873 0.07941834 -0.039413784 0.071921006
0003b0 5e 11 27 3b e6 76 e4 3c a1 74 f1 3c 7a 69 2b 3d
       0.002549253 0.027888726 0.029474558 0.041848637
0003c0 03 a5 f7 bc 62 f6 82 3d e5 79 cd bc 43 18 88 3d
       -0.03023005 0.0639465 -0.025082538 0.066452526
0003d0 9e 98 4c 3d 82 0b 7b 3d 0b 34 91 3c 19 98 29 3d
       0.049950235 0.06129027 0.017725011 0.041404817
0003e0 ae 66 8c bc 5c 49 68 3d cf 2c 23 bd 13 1c 7a 3d
       -0.017138805 0.056710586 -0.039837655 0.06106193
0003f0 96 14 2c 3e 84 ba de bd 3c 82 a1 be 1a 8f 87 bf
       0.16804728 -0.10875419 -0.31544673 -1.0590546

sequential/dense_1/MatMul f4 [10, 20]
000000 60 c9 fd bc 2c 83 0b bf a1 44 f8 3c 16 06 1f 3f
       -0.030979812 -0.5449703 0.030306162 0.6211866
000010 81 d6 d5 bd fc 90 d5 be dd 7e c4 3e 65 4b 73 3f
       -0.10441304 -0.41712177 0.3837804 0.9503692
000020 9f c7 a2 3e b2 60 96 3e 48 94 ed 3e b6 f8 1f 3f
       0.31792924 0.29370648 0.46402192 0.6248888
000030 25 1e b1 3e 9a 1e f5 3e 4c 26 18 3f aa 29 33 3e
       0.3459331 0.4787491 0.59433436 0.17496362
000040 83 22 cf 3e f2 08 20 3f d1 b2 02 be 52 55 c6 3e
       0.40456018 0.6251365 -0.12763526 0.3873697
000050 14 1d b1 bd d2 fd 4b be 4a 2f d5 bd 8b 39 0c 3c
       -0.08648124 -0.19921044 -0.1040941 0.008558641
000060 39 12 11 bc 79 0d e2 3b 14 04 18 be a7 d2 8d be
       -0.008854442 0.0068985787 -0.14845306 -0.27699777
000070 cf 00 55 bf 38 62 0a bf 76 5a b1 3e e0 cd 41 3e
       -0.8320436 -0.5405612 0.3463933 0.18926191
000080 75 0f 2f 3c 68 90 47 bf d4 ba 72 3f f0 04 46 bf
       0.010684838 -0.7795472 0.9481633 -0.77351284
000090 d6 ef 1c bf 90 21 42 3e 20 23 f5 be d6 9d c4 bd
       -0.6130346 0.18958116 -0.4787836 -0.09600417
0000a0 9a e4 35 3f 4a a6 55 bd 1c 65 df 3e 5b 99 df 3d
       0.71051943 -0.05216054 0.43631828 0.10917922
0000b0 f3 f7 63 3e 49 92 2d 3f 8d d8 4b 3e e0 1a 6c be
       0.22262554 0.6780134 0.19906826 -0.23057127
0000c0 63 34 1b 3f eb b8 92 3c d3 ef b7 be df 58 68 bf
       0.6062681 0.017910441 -0.3592516 -0.90760607
0000d0 c2 af 09 3f d6 21 e0 3d 4f 3a 0d bf d9 ab b0 3e
       0.5378381 0.10943954 -0.55167097 0.3450611
0000e0 61 66 3c bf 94 dc 46 bf ac 88 fb 3d 6e a9 33 bf
       -0.7359372 -0.77680326 0.122819275 -0.70180404
0000f0 9a 30 25 bf ac 6b 10 be e5 fd 41 3f 21 d5 04 bf
       -0.64527285 -0.14103574 0.7577804 -0.5188771
000100 27 6b 16 bf 69 95 5c 3f b2 e3 f7 be 20 46 3a bf
       -0.5875725 0.8616548 -0.48415905 -0.7276325
000110 4d cf ae 3d d2 48 81 3d c5 29 a1 3d f8 6b 55 3e
       0.08535633 0.063127175 0.07869295 0.20841968
000120 78 ab 33 bf 87 78 3a bf 65 d2 74 3d 95 b1 a0 3d
       -0.70183516 -0.7284016 0.05977096 0.07846371
000130 f9 a6 44 be 2b 0e a9 3d de 17 97 be 06 85 e0 be
       -0.1920432 0.082546555 -0.29510397 -0.4385149
000140 cf 49 aa bd 32 3b 61 3f ce bb b2 bd e4 04 48 be
       -0.08314859 0.8798095 -0.08727227 -0.19533116
000150 ef 7c e4 be 2a 22 13 3e 93 b6 40 bf d5 01 b4 be
       -0.44626567 0.14368501 -0.75278586 -0.35157648
000160 72 c0 16 be 57 a9 b1 bd 0e 04 e7 3c da 69 59 be
       -0.1472185 -0.08674877 0.028200176 -0.21231785
000170 61 6b b7 be 4f 39 10 bf da 81 00 3f af bf 19 be
       -0.3582411 -0.56337446 0.5019814 -0.15014528
000180 5e d1 8a be 7d 34 8e 3e c7 0b fe be 19 1d 1c 3f
       -0.2711286 0.2777442 -0.4961836 0.609819
000190 90 dc 9f 3d 1c fe b5 be a2 d0 c1 3d e9 ca 51 bf
       0.07805741 -0.35545433 0.09463622 -0.8195024
0001a0 a2 10 8b 3d cc 92 15 be 72 67 05 3f b5 0c 1d 3f
       0.06790282 -0.1460678 0.5211097 0.61347514
0001b0 9f 83 70 3e 69 b6 57 bf 66 b4 bf 3e 8d 69 34 3e
       0.2348771 -0.8426271 0.3744232 0.1761839
0001c0 84 58 63 3e 9a f7 4f 3f fb 71 08 3f be 04 51 3e
       0.22201735 0.81237185 0.5329892 0.20411965
0001d0 ba ea 41 3f ed 48 c8 bc 1f cb 04 3e 4e 7e e3 3e
       0.7574879 -0.024448836 0.1296811 0.444323
0001e0 61 97 07 bb 60 d5 f5 be 06 d4 ea 3e d3 15 91 3e
       -0.0020689594 -0.48014355 0.45864886 0.28336963
0001f0 a8 e5 ca 3e 5e 38 a9 bf d2 8f 4a 3f 6a f5 9e 3e
       0.3962834 -1.3220327 0.791257 0.3104661
000200 11 0c 18 3f fe 89 05 3f 5b a5 fc 3e c5 2a dc 3e
       0.5939341 0.52163684 0.49344906 0.4300138
000210 18 1f 4b 3e dd 82 86 3f 89 f2 e8 be 2b 42 1a 3f
       0.1983608 1.0508686 -0.4549754 0.60257214
000220 c4 dd 6b 3f c9 59 cb 3e 45 79 16 3f 10 2a 03 3e
       0.9213526 0.39716938 0.5877879 0.12809014
000230 c9 48 46 bf c7 6d b7 be 11 b7 ca be 7b f7 42 bf
       -0.7745481 -0.3582594 -0.39592794 -0.76158875
000240 8e 0b 33 bf 58 5c fc 3e e9 9f 92 bf e4 76 4c bf
       -0.69939506 0.49289203 -1.1455051 -0.7986891
000250 e0 d6 41 bf 13 97 24 bf a4 60 ab 3e 68 43 aa 3e
       -0.757185 -0.6429302 0.33472168 0.33254552
000260 36 75 32 bf 35 7b 0d bf 71 84 d5 3e 5d b1 40 bf
       -0.697101 -0.55266124 0.41702607 -0.75270635
000270 fb 77 5f bf 24 ec 06 3e 43 5c 67 bf c7 e6 02 3f
       -0.8729245 0.13176018 -0.90375155 0.5113339
000280 17 a9 7d be 0e 6a c0 be 21 e6 0a 3f e8 e8 24 bf
       -0.24771534 -0.37580913 0.542574 -0.64417887
000290 e9 fa 97 be 00 70 e7 3e d7 c7 aa be 32 d3 10 bf
       -0.29683617 0.45202637 -0.3335559 -0.5657226
0002a0 27 9f 14 3e 65 b9 b1 bd a0 63 c8 3d f0 62 8a be
       0.14513837 -0.08677939 0.09784627 -0.27028608
0002b0 ca d5 e9 be 13 9b 1e bf 83 aa e2 be 7d cb bf 3e
       -0.4567092 -0.61955374 -0.44270715 0.37459937
0002c0 2b 33 8a be 99 90 85 be 6e 12 24 bf 3c 8c 7e bc
       -0.26992163 -0.26086882 -0.6409062 -0.015536364
0002d0 a8 e0 17 bf 88 86 59 3f 7e e3 ae be 8b c9 6a bf
       -0.59327173 0.84970903 -0.34157938 -0.9171378
0002e0 07 6a 03 bf 07 be 00 3f 8d b6 44 bf a7 fe ab be
       -0.5133366 0.5028996 -0.7684105 -0.33592722
0002f0 f9 aa 49 bf b2 c4 c2 be 92 0d 19 3f 91 e3 18 3f
       -0.7877651 -0.38040692 0.5978633 0.5972224
000300 fd 4f 13 bf e3 08 70 bf 8a 3b cc 3d cd 41 37 bf
       -0.5754393 -0.9376356 0.09972294 -0.7158478
000310 0d 77 09 bf 5d 61 80 3e 9c 3f 80 bf 3c 33 ea 3d
       -0.5369728 0.25074282 -1.0019412 0.114355534

sequential/dense_2/MatMul f4 [3, 10]
000000 eb a7 0d 3e f0 41 39 3f 34 bf 75 bf 95 cd 2e 3f
       0.13833587 0.7236624 -0.9599488 0.68282443
000010 d2 2b 76 3f 5f 97 38 be c6 50 96 bf fa 92 a3 3f
       0.96160614 -0.18026493 -1.17434 1.2779229
000020 f5 99 0a bf 84 b2 a8 3e 4b c0 79 3f af d9 64 be
       -0.5414117 0.32948697 0.9755904 -0.22348665
000030 c0 07 22 bf 24 4d 77 bf 47 01 aa be ac 28 43 3f
       -0.63293076 -0.9660208 -0.332041 0.76233935
000040 41 53 9a 3e ec 46 2c bf fe 2f 3a bf 13 0e a4 be
       0.30141643 -0.6729572 -0.7272948 -0.32041988
000050 8c b7 53 bf f6 c0 b6 bf 9b 5a 7c 3f 21 58 5e 3f
       -0.82701945 -1.4277637 0.9857575 0.86853224
000060 61 1a 68 bf a4 cb b8 bf 11 58 36 bf b4 69 fa be
       -0.9066525 -1.4437146 -0.7122813 -0.4890877
000070 25 36 8f 3e 98 ac 2b bf
       0.27970996 -0.6706023
